PPO_preTrained/CartPole-v1/PPO_CartPole-v1_0_0.pth (torch, 40745 bytes, 11 tensors)

actor.0.weight f4 [64, 4]
00000000: 845e 9e3e 880a 133d b498 bdbe be26 c5be
00000010: b4bb b1bd 5d7c ed3d 5506 dcbd 418b 8b3e
00000020: 88a2 b83d 5328 b93e f312 15ba cbfe dc3e
00000030: 6e73 9bbe ab65 f33e 3c64 313e df59 7f3e
00000040: 3915 b53d 20a4 c83d e9ca bb3e d4a9 20be
00000050: 8a62 af3e 0222 b63e be32 2e3f fc04 d83e
00000060: c249 043e fa68 90be 21f9 8bbb e59e 8dbe
00000070: 8331 1a3e 0255 eebe d293 0bbf f0fb 003f
00000080: 8f5a 873e 9a5f b13d 1b43 b9bc 79f7 473e
00000090: 29f1 23be 5d9d c2be a8e8 373f 298b dd3e
000000a0: 11f7 2d3d c876 013e a75c 723f 50d2 323e
000000b0: 1e21 b93e 9050 763d 38df 503f 67af b6be
000000c0: 1597 2d3e 6727 b2be 6d43 1a3f ab7c b33e
000000d0: 52d5 02bf daac 8d3e a4ed 343e 9e5f cbbe
000000e0: 0a30 c6be c974 c53d eb78 d23d 4576 133d
000000f0: 63ab 5d3d c1d3 f13e 9de5 203f 672c b83e
00000100: 8024 a4be 8005 d63e 0e38 083e bcc9 01bf
00000110: 55f2 073e 2767 cdbd 536e 5abf ad2c 92be
00000120: 1183 7e3e 2330 2b3d 6774 24bf 5914 73be
00000130: 7e85 223e 5a54 e3be fa59 e1be 5c0f f9bd
00000140: 3aa8 b13e b1ff 13be b806 3f3f 5f82 aa3e
00000150: 5b7a 34be fbae 3eba 3e2d 043f 9ade f73e
00000160: 245c ddbe ac5c 74be 9f19 9fbe 6cef 9e3d
00000170: acf9 bbbe 5120 ecbe 8005 01bf 2cee c13e
00000180: 1823 f5be 3344 ecbe b649 53bf 6243 a3bd
00000190: 5845 293e 801c bc3e 1c94 153f 1811 3a3e
000001a0: 70cd fc3e c896 983d 0a7c f53e 00dc 543e
000001b0: f77d db3e 6c3e ee3e 06f3 463d 2fad 8cbc
000001c0: 2fce 6a3e 213e d13c 706a 5abf 49c4 7cbe
000001d0: de67 9ebe 3eb3 04bf 5ba1 fcbd 3250 6dbe
000001e0: 4b53 aabe db2c f73e 092c 563f 9621 023f
000001f0: e4a8 d2bb 65fb d53d 7d94 fc3c 964e 96be
00000200: 02f1 383f bd4b 1e3e 4caa 2a3d 0900 cd3d
00000210: 48de a4bd 8dd1 c2bd 6217 59bf 6caa c4be
00000220: 040d 953e 375f a43e 6872 ffbb 491c 3d3e
00000230: 2b41 473e dd9b 8c3e 273d 4e3f 94f7 213d
00000240: cbdf 913c 1428 57be c356 bebe 7fe6 b5be
00000250: cefa 1bbe 3c71 823d c51c 2ebf 83a6 1bbd
00000260: bb90 e0be 0178 2abe c425 56bf 2afb 03be
00000270: a6e3 3ebe 30a7 b1be 9198 493f 9737 d73e
00000280: a62c 0d3d f69e 433d 4ac6 a2be 44c9 cebe
00000290: de93 afbd 6279 97be 7ea5 71bf 0986 48be
000002a0: ea0e d2be 602c 80be b7c1 3fbf 0a05 06bf
000002b0: b092 923e c99c ddbe 1e16 9a3d a4d1 01bf
000002c0: 2d1a 42be dffe 1b3f 9372 0a3f 15ae a33d
000002d0: e6d1 28be 2efd 0f3e f215 f93e 55a5 80bc
000002e0: 4af9 93be 6a34 813e cf3d fbbd 5704 c3be
000002f0: b824 4c3e 7f5f c9be 067a 9bbc 37e4 833d
00000300: 1b3b 853d 9653 98bd 01a9 99bd 0056 f1be
00000310: c0b8 de3d 9597 a43d 106f 643e 5b86 50be
00000320: 5524 1cbe 0163 e9be b9b0 c4be c3b0 1abe
00000330: 779b 0f3f 4e17 c53e 5354 afbd 9102 fa3e
00000340: 4a0b 8b3e 3e55 7a3e 863f a0be 9d60 b33d
00000350: 0b48 c53c f9eb 19be 778b 20bf 0b32 c6be
00000360: 875e d3be 6503 883d 4faf 0cbf 6411 f6be
00000370: 74ad 56bc 3189 7f3e 7968 1abf 24c4 bbbe
00000380: 18ea cebd 0cd4 ccbe a0a9 aebe 74c7 b8be
00000390: d1bd f7bd c17c 153f 26b7 203f 162a 97be
000003a0: d130 b1be d167 fcbc 3e99 26bf 74ef bbbe
000003b0: 7542 ae3e 4bf0 033d 4f8e 9abe c5c9 07bf
000003c0: 9fe5 b43e c5e5 ba3e dc0c fd3e 3a25 833e
000003d0: a370 c33e ad6c f23d e225 d13e 4a84 e83e
000003e0: 24ec 1dbe b086 c13e 24c5 a23e e9c1 a2be
000003f0: e83a 95be 9e5f adbe c5c8 15bf c0f4 b7be
0.30931485 0.035898715 -0.37030566 -0.3850612 -0.0867838 0.11595986 -0.10743395 0.2725468
0.090153754 0.36163577 -0.00056867226 0.43163142 -0.30361503 0.47538504 0.17323393 0.24936627
0.088419385 0.09796929 0.36678246 -0.15689784 0.34254867 0.3557282 0.68046176 0.42191303
0.12918761 -0.2820509 -0.004271642 -0.2766029 0.1505795 -0.4654923 -0.5452243 0.50384426
0.26436278 0.08660813 -0.022615006 0.19527997 -0.16009964 -0.38010684 0.7183938 0.43270233
0.04247195 0.12642968 0.94672626 0.1746304 0.3615808 0.060135424 0.81590605 -0.35680696
0.16952164 -0.34795687 0.60259134 0.35056052 -0.5110675 0.27670938 0.17668778 -0.39721388
-0.38708526 0.096414156 0.102769695 0.036001462 0.054118525 0.47231868 0.6285036 0.35971376
-0.32059097 0.4180107 0.13302633 -0.5069845 0.13276036 -0.100294404 -0.8532459 -0.2854971
0.24854685 0.041793954 -0.64240116 -0.23738231 0.15871236 -0.44400293 -0.4401396 -0.12161133
0.3469866 -0.14453007 0.74619627 0.3330259 -0.176248 -0.0007273999 0.51631534 0.4841202
-0.4323436 -0.23863477 -0.31074235 0.0776051 -0.36713922 -0.46118405 -0.5039902 0.37877023
-0.47878337 -0.46145782 -0.8253435 -0.079718366 0.16530359 0.36740494 0.5842912 0.18170583
0.49375486 0.07450634 0.47946197 0.20787048 0.4286954 0.46532 0.04857161 -0.017172424
0.22930215 0.02554232 -0.8531866 -0.24684252 -0.3093862 -0.51836 -0.123354636 -0.23175123
-0.33266672 0.4827641 0.8366094 0.508325 -0.0064288247 0.1044834 0.030832523 -0.2935683
0.7224275 0.1545858 0.041666314 0.10009772 -0.08050209 -0.09512625 -0.84801304 -0.38411272
0.29111493 0.32103893 -0.0077956207 0.18467821 0.19458453 0.27462664 0.8056206 0.03954275
0.017806908 -0.21011382 -0.3717557 -0.35527417 -0.15232393 0.06369254 -0.6801265 -0.038000595
-0.4386042 -0.1664734 -0.83651376 -0.1288878 -0.18641528 -0.34697866 0.7874842 0.420346
0.03446641 0.04775902 -0.31791908 -0.40387928 -0.08573125 -0.29584795 -0.94393146 -0.1958238
-0.41027004 -0.25033855 -0.7490496 -0.5235144 0.2862754 -0.4328368 0.0752375 -0.5071051
-0.18955298 0.6093578 0.54081076 0.07992188 -0.1648632 0.14061424 0.48649555 -0.015703836
-0.2890113 0.252353 -0.122676484 -0.3808925 0.19935882 -0.3933067 -0.018979084 0.06440013
0.06505414 -0.07437818 -0.07502938 -0.47135925 0.10875082 0.080367245 0.22307992 -0.20363753
-0.15248235 -0.45583346 -0.3841608 -0.15106492 0.56096596 0.38494343 -0.085610054 0.48830083
0.2715705 0.2444658 -0.31298465 0.08758662 0.024082204 -0.15031423 -0.62712806 -0.38710055
-0.41283056 0.066412725 -0.54955 -0.48060143 -0.013102878 0.24954678 -0.6031566 -0.3667308
-0.101032436 -0.4000553 -0.3411379 -0.3608967 -0.120967515 0.58393484 0.6277946 -0.29524297
-0.34607556 -0.030811222 -0.6507758 -0.36706126 0.34035078 0.032211583 -0.30186698 -0.5304225
0.35331437 0.36503425 0.49423873 0.2561434 0.38171872 0.118371345 0.40849215 0.4541343
-0.15422112 0.3779807 0.3179103 -0.31788567 -0.29146504 -0.33862013 -0.58509475 -0.35928917

actor.0.bias f4 [64]
00000000: 7312 2abd f745 bf3e 7a4d e63e 295e 4fbe
00000010: e1d0 ba3e 414f b2be df2d d7bd 183d 7c3e
00000020: 2cb4 d6be a28c 9c3e 2c44 283c 8ee0 873e
00000030: b215 e2bd 52d9 743e d442 57be 8153 d2be
00000040: 8536 d2be 8879 59be 578b 5bbe 6dc5 4dbe
00000050: 6e90 3bbb 7766 37be 50bf f4be f515 64be
00000060: 6829 bdbe 40d0 c8be 2760 be3e 02b3 bbbd
00000070: f3b5 d83d eda1 bb3e 9df4 233e c794 773e
00000080: 29dc 50bb ec7c 733e 7206 2b3e 0a0e 46bc
00000090: 0937 d1be 7802 41bd 7830 bb3e b277 94bd
000000a0: f758 ac3e ae83 02bd a753 853e 500a 753e
000000b0: 926e ddbc e468 343e c0b9 0fbd 0b08 b9be
000000c0: cf56 7e3d f003 e83e df4b 82be 1e2d b8be
000000d0: ee93 eb3e 1666 583e d496 a33e ffcf acbd
000000e0: cdca 90be f63f 12be d9b6 ba3e 2ab0 ba3d
000000f0: 153b 303e 6eac d6bd f7e3 0ebe 5a10 babe
-0.0415215 0.37358066 0.44980985 -0.20250763 0.36487487 -0.3482609 -0.10506796 0.2463268
-0.41934335 0.30576044 0.01027016 0.2653851 -0.11039294 0.23911026 -0.21021587 -0.41079333
-0.4105722 -0.21237767 -0.21439873 -0.20094843 -0.0028620022 -0.17910181 -0.4780221 -0.22274001
-0.36945653 -0.39221382 0.37182733 -0.091650024 0.10581579 0.36646977 0.16011281 0.24177848
-0.0031869507 0.23778123 0.16701677 -0.012088308 -0.408623 -0.047121495 0.36560416 -0.072493926
0.33661625 -0.03186386 0.26040384 0.23929715 -0.027030263 0.17618138 -0.035089254 -0.3613895
0.062094506 0.45315504 -0.2544851 -0.35971922 0.460113 0.21132693 0.3195101 -0.084381096
-0.28279725 -0.14282212 0.36467627 0.09115632 0.17210038 -0.10482107 -0.13954149 -0.363406

actor.2.weight f4 [64, 64]
00000000: a359 3e3d 08b8 dcbd 57ce d5bb aed7 0f3e
00000010: 4fb0 243d 8b94 d13d ffe1 afbd 3ae9 2b3d
00000020: 1104 e23d 8c30 613d da10 513d 4716 bcbc
00000030: 3945 943d 59c5 9d3d 83aa 5fbd f6e5 043e
00000040: d488 0c3e 1bd8 67bd bf4c c53d cc77 a7bd
00000050: d705 223e 8f29 183e f1c7 69bc bc84 b43d
00000060: 4bcc 17bb 9312 363d 85d8 0d3e df9f 8bbd
00000070: 503f 1dbe 0778 6fbd f234 d2bb 36c7 bebd
00000080: 22a4 783d 0ca1 e13c e394 bbbd 67c5 6a3e
00000090: b6f1 443d 8241 be3c f836 013d 47eb 873b
000000a0: 474f ccbd 42d2 96bd 6e9d 0dbd 2eea bd3d
000000b0: d6bb 5dbd 4e49 39bd fed5 e1bd 7ba4 e33d
000000c0: 91f5 473d f281 863d 624f 2dbd 6eb4 fd3d
000000d0: 3cbe 02be a64e 3fbd 64b3 e3bd db91 cfba
000000e0: f25a babd 7740 39bd bfab 51bd 183e 233d
000000f0: 524c 293d a393 93bc 5bc7 c3bd 3f88 d2bd
00000100: 3905 073d f841 f43c f44f e7bd 697c bebd
00000110: 161a e03d 925c 0dbe 96c2 9f3d 84ad 433d
00000120: e6c2 97bd 19ca b43c 1ab5 68be b662 81bd
00000130: 8752 febd 26fe 0e3d 0e82 96bd e30d 5ebc
00000140: 39a3 71bd 7090 1cbc 9646 04bd 1903 b23b
00000150: e50c d33c 152d b2bd 760e 46bc c21d b8bd
00000160: 29ac 29bd f579 483c 96cb 1abe 320b edbd
00000170: 7948 923d 1ed1 cdbc 32b6 39be 8046 38bd
00000180: 73d1 44bd e3a8 143d de1a 0cbe d2d6 1dbe
00000190: 4850 ca3d 8eae 423d 32a4 1dbd 9835 543d
000001a0: a719 a3bd 022e af3e 38fb 103d 585b 7c3d
000001b0: 1be9 29be cf5e 6bbd 0f44 81bd b701 efbd
000001c0: df85 f93d 0d7e 213c 86b2 103e a1f8 03be
000001d0: d790 c1bd 1d52 d83d 891c b3bb 1228 77bd
000001e0: c41f 1c3e ff25 a53b 9bc3 c0bb 3e48 c8bc
000001f0: 423a 3f3a 3f10 823d d8d0 e23d 3fa9 f83c
00000200: b183 b23d 094a adbd 867c 47bd 31ca d0bd
00000210: 3dc8 9f3d e2a8 a93c 057f 403d 4eb6 b8ba
00000220: f619 773d b015 7d3d 7df6 81be 75da 0dbe
00000230: db19 f1bd 1148 bb3d 2837 0a3d 6c71 c7bc
00000240: d509 a33d 273b 3b3e 14f9 213e 5f9f adbd
00000250: b687 f23c 81e7 053d a3cd bebd f309 9fbd
00000260: 60d4 1fba 0256 adbd c691 2ebe 12da 513c
00000270: 3cc8 f63d 0cf2 043e 4ed8 94bd 8c94 e03c
00000280: 84c1 993c 882f 243e 8a1c 23bc 8a5a 63be
00000290: ee80 583d 4d7c fc3d bc0f 943d 95fa ab3d
000002a0: 2423 b03d 88dc 573e b4ac df3d 6580 003e
000002b0: 1220 0abe 2960 b5bd 6681 0cbc 3dfd df3d
000002c0: c939 37bd af4e 01bd be6d d63c 10f7 e1bd
000002d0: 9ead c2bd 2941 0bbd f151 9b3d 5569 11bb
000002e0: 70f3 153e 431b af3c dbc9 293e d9f7 85bc
000002f0: f9ec 9cbc d846 7fbd b2ff 87bd b2d6 3ebc
00000300: fa89 103b e3b5 ca3d 8364 babd 0003 dfbd
00000310: 87c5 19bd 6b98 df3b 3d12 d9bd a2fd ed3d
00000320: 6c9c 8abd 7dc2 0c3d 5df1 9cbe 5440 7abc
00000330: 648e 503c eeef 5abd 2685 263d 1c2b a6bc
00000340: 7f9f d53d a1bd 71bc 91b5 a63d f604 1f3e
00000350: 0cca 253d e545 a1bd 5636 26bd 9f6d 03bc
00000360: f990 163d d659 11be aa7f 2cbe 3dc2 01be
00000370: b6b1 ff3d 2ea3 48bb 9c9a c0bd 3b2e 5b3d
00000380: e406 58be 3086 59bc 98e6 17be cc08 86be
00000390: 4443 823d 3c65 403e a9ac f03d 4386 4bbd
000003a0: 5a74 fb3d 6dd5 4c3e 3e30 d33d f9e8 ce3d
000003b0: c6ca e7bd 2eef 79bc bcdf e23d 0034 653d
000003c0: 3955 debd d177 853d 4d2f 383b 7a3a 16be
000003d0: 06ac 02bc 1c4d 063e 8277 ef3d 5a71 253d
000003e0: 2f0d 5f3d 46d3 31be aeb2 4f3d 49a5 c7bd
000003f0: 276e 98bc 0793 a1bd 88e3 2f3c b36b 293e
0.046472203 -0.10777289 -0.0065248418 0.14047119 0.040207203 0.102334104 -0.08588027 0.04197047
0.11035932 0.05497794 0.05104146 -0.022959841 0.07239766 0.07703657 -0.054605972 0.12978348
0.13724071 -0.05660258 0.09633779 -0.08177146 0.1582254 0.14859603 -0.014268861 0.088143796
-0.002316254 0.044451308 0.13852127 -0.06817602 -0.15356183 -0.058464076 -0.006415003 -0.0931534
0.060703404 0.027542613 -0.09159257 0.22926866 0.048082076 0.023224596 0.031546563 0.0041479203
-0.099760585 -0.07364322 -0.034573965 0.09273182 -0.054134212 -0.045235924 -0.11027144 0.111153565
0.048818175 0.06567754 -0.042312033 0.1238793 -0.12767881 -0.046705864 -0.111182004 -0.0015836315
-0.09099378 -0.045227494 -0.05118918 0.03985414 0.04133255 -0.018014735 -0.095595084 -0.10279893
0.032963965 0.029816613 -0.11294547 -0.09301073 0.109424755 -0.13804844 0.07800786 0.0477729
-0.07410221 0.022069024 -0.22725335 -0.06317656 -0.124180846 0.034910344 -0.07349025 -0.013553116
-0.058993552 -0.009555921 -0.03229388 0.005432498 0.025762985 -0.08700005 -0.012088409 -0.08990051
-0.04142395 0.012236108 -0.15116724 -0.11574401 0.07142729 -0.025124129 -0.18135908 -0.04498911
-0.04805131 0.036293875 -0.13682124 -0.15413979 0.09878594 0.04752975 -0.038486667 0.051808923
-0.07963877 0.3421479 0.03539583 0.06161055 -0.16592829 -0.057463463 -0.06311809 -0.11670249
0.12183737 0.009856713 0.14130601 -0.12887813 -0.09451454 0.10562537 -0.005466048 -0.06034095
0.15246493 0.00503993 -0.005882693 -0.02444851 0.0007294753 0.06350755 0.1107499 0.03035414
0.087165244 -0.08461387 -0.04870274 -0.10194815 0.07801864 0.020710412 0.046996135 -0.0014092417
0.060327493 0.06178826 -0.25383368 -0.13852866 -0.1177251 0.09144605 0.033744007 -0.024346076
0.0796086 0.18284284 0.15817672 -0.08477663 0.029605728 0.032691482 -0.09316566 -0.077655695
-0.0006097015 -0.0846367 -0.17047796 0.01280834 0.120499104 0.12982959 -0.07267819 0.027414583
0.018769033 0.16033757 -0.009955535 -0.22202507 0.052857332 0.12328396 0.072295636 0.08397404
0.086004525 0.2108022 0.109216124 0.12548979 -0.13488796 -0.08856232 -0.008575773 0.10936973
-0.044732843 -0.03156918 0.026175376 -0.110334516 -0.09505771 -0.03399769 0.075839885 -0.0022188027
0.14643645 0.021375304 0.16580908 -0.016353535 -0.019155966 -0.06232342 -0.06640567 -0.011647867
0.0022054897 0.098979734 -0.09101202 -0.10889244 -0.037541892 0.0068235896 -0.10599182 0.11620642
-0.06768116 0.034365166 -0.30652896 -0.015274126 0.012729261 -0.05345147 0.040654324 -0.020284228
0.10430812 -0.014754684 0.081401 0.15529236 0.04047589 -0.078746594 -0.040579163 -0.008021741
0.03675935 -0.14194426 -0.16845575 -0.12671752 0.124850675 -0.003061484 -0.094044894 0.053510886
-0.21096379 -0.013276622 -0.14834058 -0.26178586 0.06360486 0.18788618 0.11751682 -0.04968859
0.12278052 0.2000329 0.10311936 0.1010303 -0.11317973 -0.015254779 0.1107783 0.055957794
-0.10856099 0.06516994 0.0028104365 -0.14670745 -0.007975584 0.13115352 0.11692716 0.040391304
0.054455932 -0.1736575 0.05070751 -0.097483225 -0.018607212 -0.07889371 0.0107354 0.1654499

actor.2.bias f4 [64]
00000000: f054 01be 0cb3 a53d 2195 973d 989e a0bd
00000010: 4173 bf3d 172b cbbd 716f 3dbc af1a b13d
00000020: f1cf bd3b b4d2 ba3d edf9 863d d758 7d3d
00000030: 1757 803a 3fd8 c2bc 883a b5bd 03ca 3f3c
00000040: c209 07bc f249 9dbd fad2 ccbd d7ff c5bd
00000050: 51ea af3d 4da3 fcbc de9a dbbd 04f8 7e3c
00000060: 482a 93bd b168 e23d 7840 8c3d 2fcd a9bc
00000070: a3fb e63d 8b7c 9e3c 36de cdbd 307c b93d
00000080: 9e95 68bd 0fe3 a4bb 0d09 b93d d200 193d
00000090: e63f 2e3d 8ef7 ff3d 980a aa3c 2df2 ae3d
000000a0: 5b73 a0bc 0ec7 37bc 1bdf 29bd 7865 65bd
000000b0: 6600 ba3d 4e3d d43d be3b b2bb ff98 e1bd
000000c0: 80c7 e03d 3873 00bd 9b5f 1b3d 370d 023d
000000d0: 2c48 28bc 2777 ad3d a650 9b3d db92 913d
000000e0: e6cf 86bc fe06 bb3c 41c2 ea3d 1c30 c23d
000000f0: 3ce7 1e3d 9db9 c2bd 5af5 4cbd 2e1e a33d
-0.12630057 0.08090791 0.07401491 -0.07842749 0.09348155 -0.09920328 -0.011562214 0.086476676
0.005792611 0.0912222 0.06590638 0.061852302 0.000979158 -0.023784755 -0.088490546 0.011705878
-0.008242073 -0.076801196 -0.10001178 -0.09667938 0.08589614 -0.030839587 -0.10722898 0.015562061
-0.07185799 0.110551246 0.06848234 -0.020727722 0.11278465 0.019346496 -0.10052149 0.0905689
-0.05678331 -0.0050319503 0.090349294 0.037354298 0.042541407 0.12498389 0.020757005 0.08542285
-0.019586256 -0.011216892 -0.041472536 -0.05600497 0.09082107 0.103632554 -0.0054392507 -0.1101551
0.109755516 -0.03135988 0.037932973 0.031750884 -0.010271113 0.08469992 0.07583742 0.071080886
-0.016456556 0.022830483 0.11462832 0.094818324 0.03879474 -0.09508059 -0.050038673 0.07964741

actor.4.weight f4 [2, 64]
00000000: 7bf4 bcbd 90d9 113e ad91 133d ca9b 7d3e
00000010: 56c8 2cbd 0994 2c3e df9b 123e 1a5c 0a3e
00000020: 0819 813d 7a95 46bc a6a0 bb3d c104 b33d
00000030: 92e3 163e 0909 22be cd11 9d3d c000 4fbd
00000040: 0025 183e c3df 173e 9e89 b9bd c4de 1c3d
00000050: 8278 ff3b bef3 61bd 3e50 2cbe f557 763e
00000060: ef91 febd 708f 65be ab18 bdbd 18fb 06be
00000070: db0a 823d 274f f6bd 71a3 2e3e 61fa 1cbe
00000080: 8094 0cbe 9c7f 073e 4f16 6a3e d174 a33d
00000090: b826 ddbd 5619 8bbd 70b8 953c 343d 593e
000000a0: bb3d 1cbe 1980 32bc 00ed 643e 3c2c d33d
000000b0: f590 7fbd c553 cabd 3c2f 383e 1ed6 cb3d
000000c0: 2d87 45be 07ac bd3d e6e0 6e3e 3a5d 80bd
000000d0: 5617 653d 1e48 53be 5934 7fba 8da1 4ebe
000000e0: 2af6 39be 5bb6 383e e95d dd3d cd77 b43e
000000f0: 602b a1bd 820a 46be a4fa 1cbe e44a 543e
00000100: 0a54 173e c787 373b 4221 dabd b29f 04be
00000110: ad42 db3d 5d1c 093d a836 26be 23ab 93bc
00000120: 24e2 12be d732 713d 303a c7bc cfba e43d
00000130: ce23 bdbd fac9 4c3d b749 1cbe 2348 ce3d
00000140: cc86 713c a269 7dbe c965 783e 6c2d 81be
00000150: 80a0 02be bc98 0e3e 135c 223e 4fa3 3cbe
00000160: 1e9b ce3d b8f7 633e a0db 683e 0650 843d
00000170: f1dc 3bbe 2b7a 373e a1b4 c9bd 5a95 eebc
00000180: dd03 4f3e b5f7 a63c ad82 3ebe dead 5fbd
00000190: b435 263e 05a7 583e 0138 58be 4b88 bcbd
000001a0: 0d90 863c 4907 103e 6450 883b b157 a1be
000001b0: 9c7c 833d 24e4 ff3d 09aa d3bd 0ce5 30be
000001c0: a4f6 a53d b46b 9dbc 97df 88be 7b24 2d3e
000001d0: 1076 083d 80a8 533e bcbc 1fbe 7721 223e
000001e0: f99b 1a3e 919b 26be 2510 aa3d 7116 12be
000001f0: 4fe3 febb d0da 653e e21f bb3d aba8 c3bc
-0.092263184 0.1424315 0.0360276 0.2476646 -0.042183243 0.16853346 0.14317273 0.13511696
0.063036025 -0.012120599 0.09161501 0.08741141 0.14735249 -0.15823759 0.07669411 -0.050537825
0.14857864 0.14831452 -0.090594515 0.038298383 0.007796348 -0.05516409 -0.16827485 0.2405699
-0.124301784 -0.22417998 -0.09233221 -0.13181722 0.06349727 -0.12026816 0.17054535 -0.15329887
-0.13728523 0.13232273 0.22860073 0.07981265 -0.10798401 -0.06791942 0.018276423 0.21214753
-0.15257923 -0.010894799 0.22356033 0.103111714 -0.0623941 -0.09879259 0.17986768 0.09952949
-0.19289847 0.09261327 0.2332798 -0.062677816 0.055930458 -0.2063298 -0.00097352784 -0.20178814
-0.1816031 0.18038313 0.108089276 0.3524765 -0.07869601 -0.19339946 -0.15329987 0.20731694
0.14778152 0.0028004514 -0.10650875 -0.12951544 0.10706077 0.033474315 -0.16231787 -0.01802594
-0.14344078 0.058886375 -0.024319738 0.111684434 -0.09235345 0.049997307 -0.15262495 0.10072353
0.014741611 -0.24747327 0.24257578 -0.25229967 -0.12756538 0.13925451 0.15855436 -0.18421672
0.1008818 0.22262466 0.2274003 0.06460576 -0.18346001 0.17917697 -0.09848905 -0.02912395
0.20216317 0.020381788 -0.18604536 -0.054609172 0.16231424 0.21157463 -0.21115114 -0.09205683
0.01642611 0.14065279 0.004159974 -0.31512216 0.06420252 0.12494686 -0.10335166 -0.17274874
0.081036836 -0.019216396 -0.26733086 0.16908447 0.03331572 0.20669746 -0.1559934 0.15833078
0.15098561 -0.16270281 0.083038606 -0.14266373 -0.007778562 0.22446752 0.091369405 -0.023884138

actor.4.bias f4 [2]
00000000: 7e98 98bd 4c38 893d
-0.074509606 0.06700191

critic.0.weight f4 [64, 4]
00000000: f834 40be b5fc 0cbe 0683 99bf 74e5 dabe
00000010: be19 03bf d1ae 17be 3424 723f f9c0 1ebd
00000020: e8b8 0bbf d6fd 50bd b034 b73d 5436 04be
00000030: 4890 cbbe d71b 72bd 8b84 4bbf 6a2f 0d3e
00000040: 38af 1f3f 0830 553e 7c24 6b3f ddde 983e
00000050: c7a9 9c3f 2ead 703e 726d 4d3f f981 9e3e
00000060: 7a6d 413f ed6d a73e eadc 013e 1241 183f
00000070: eef3 00bf f4a3 fabe 66fb 8bbe 26a7 d0be
00000080: 02ca f63e a5b2 c0bd 7e76 bd3e 550b c53e
00000090: 4a9e 8b3f e9cb 813e 8dbe 913f e4a8 9a3e
000000a0: 9ddd ddbc ae54 843e 3a6d 86bf 4fa2 1b3e
000000b0: c8d6 373f 8f31 9b3d 0d0a 4e3f 1a57 37be
000000c0: 9eb6 ef3d c00f 85be ca5e 54bf 1d13 ff3d
000000d0: 2938 18bf a524 18bd eead 3e3f c40c 9e3e
000000e0: 8b42 703f 2ffe fd3e d202 6e3e daab b23e
000000f0: 0338 d33c 3bcf 613e 10cf 24bf dcab 99be
00000100: a689 42bf a655 00be a11d 8ebe 93f2 a2bd
00000110: d231 45bd a5d1 5ebd f0c4 d83e 037a b63e
00000120: ecbc acbb 4cb4 563e de36 7fbf c012 d2be
00000130: ee9a 583f d0dd 703e 2f5c 813f 34e7 c93e
00000140: e018 323f fedc b9be 5fe0 813e 89d0 82be
00000150: 3a55 1c3f b38e 0a3d abf9 833e bad5 d33d
00000160: 9c96 19bb 09b8 b6bd 4a69 a43f 1f90 97bd
00000170: ca15 88be 55fa 7c3e aa45 f83e 3b4e 35be
00000180: e01e 62be 85e5 3d3d 0ec9 f4be c394 11be
00000190: 05e3 a2be 6277 933e 7442 87bf fe17 333d
000001a0: 05d6 4c3c 0a60 f5be e558 443e 77b9 933e
000001b0: 4604 2c3e 8f6d b53e 6305 543f 81d9 013e
000001c0: fc08 81bf cc0f 19be a469 38bf be88 233e
000001d0: 0ae7 80bd 4235 a83e e49f 48bf aa46 d43e
000001e0: 3cbd 813e 3315 9abe 5951 693f 7efa 1abd
000001f0: 3e9f 51bf 0f1e 5fbe 4bac 23bf d45a 82be
00000200: 18e9 8cbe 0d29 ee3d 151f 183f 8108 b83e
00000210: 749e f53d ba61 653e e028 90bf ddda fa3d
00000220: d2b9 f8bd bb27 873e 54d4 023f ded3 883e
00000230: 75b9 033f 788b c03e 6245 433e 80f2 a03e
00000240: 31d8 ff3e bd39 80be 7702 783f 344a b9bb
00000250: ffa1 383f d77b 473b 1d8a 943f 6286 5ebe
00000260: 20b8 3cbe 6aba 88be ff70 8cbf 3212 b7bd
00000270: eb91 37bf bf1d b9be 5890 863f d2a8 133c
00000280: 790b 743e e6b5 9f3e dde6 003f 899d c53e
00000290: 6225 653f 8bdd 433d 7d13 3c3f caff 02bb
000002a0: 776a dabd 7444 393e f3ef 0ebf 3105 0c3f
000002b0: 873b b3be 884d 323f 1635 6bbe 2c8c 8b3d
000002c0: 9454 f93e 6515 943e d69c be3e 855a 56be
000002d0: 7015 813d 63f7 023f f495 423f a485 e23e
000002e0: b826 69bf 9f40 3d3e 1157 81bf eff8 7d3d
000002f0: 864f 2ebd a64e ba3e 01f7 6c3f bd74 f53e
00000300: 7ce2 c7be 4501 0dbf adb8 063e c4ed f33d
00000310: f2f6 51bf afbc 543e 9211 4bbf 89e0 093f
00000320: f9e9 2cbf 1f6f 04bd a474 68bf ca09 5b3d
00000330: b6e3 43bf 2373 323e c6f6 84bf c13a 0c3f
00000340: 53ea 8b3f 506e 023d d8b6 4c3f e1bd 6f3c
00000350: 27ce e43e 75bc 033f 9417 5bba 5c53 883d
00000360: 4ad4 2cbf 419e c0be 602a d3be d6b3 d8be
00000370: 870e 5cbe 8e89 a03e 4a77 b33d a0aa 153e
00000380: 10b6 41be 94c2 8fbe 1a8f 14be 47bd 9abe
00000390: eed5 30bf 6759 5e3e 03e7 87bf 1c0e b53e
000003a0: 9d39 263f 5952 3fbe dca0 423f 3524 1f3e
000003b0: e988 73bf be8d 1bbd df79 25bc d716 af3d
000003c0: 4aa9 883e 8317 183d f3a8 573f 535f 83be
000003d0: 7308 453f 2df1 1ebe 495d c13e 65ed 573c
000003e0: 648a 31bf 6cd2 5a3d c896 9dbf 4dc6 48be
000003f0: 50c6 193e 3521 6bbd 59c7 1c3f d4f3 02bf
-0.18770206 -0.13768275 -1.199311 -0.42753184 -0.51211154 -0.14812781 0.9458649 -0.03875825
-0.5457902 -0.051023327 0.08945596 -0.1291135 -0.39758515 -0.05910858 -0.7949912 0.13787618
0.6237674 0.20819104 0.91852546 0.2985753 1.2239312 0.23503563 0.80245125 0.30958536
0.7555767 0.32701054 0.12681928 0.5947429 -0.5037221 -0.4895321 -0.2734024 -0.40752524
0.48200995 -0.09409074 0.37004465 0.38485208 1.0907681 0.25350884 1.1386276 0.30206978
-0.027083213 0.25845855 -1.0502083 0.15198635 0.71812105 0.07577812 0.80484086 -0.1790432
0.11704753 -0.2598858 -0.82957137 0.124548174 -0.59460694 -0.037144322 0.74484146 0.30869114
0.93851537 0.4960799 0.23243263 0.34896737 0.025783544 0.22051708 -0.6437845 -0.3001393
-0.75991285 -0.12532672 -0.2775698 -0.079564236 -0.048143215 -0.05439915 0.4233775 0.35639963
-0.0052715447 0.20967215 -0.99693096 -0.4102993 0.84611404 0.23522115 1.0106257 0.39434206
0.69569206 -0.36301416 0.25366494 -0.25549725 0.61067545 0.033827495 0.2577642 0.103434995
-0.0023435717 -0.08921821 1.2844632 -0.07400536 -0.26579124 0.24704869 0.4849065 -0.17705624
-0.2208209 0.046361465 -0.47809643 -0.14216904 -0.31813827 0.2880202 -1.0567155 0.043724053
0.012502198 -0.47924834 0.19174536 0.28852436 0.16798505 0.3543515 0.8282072 0.12680627
-1.0080867 -0.14947432 -0.72036195 0.15970132 -0.06294067 0.32853132 -0.78368974 0.41460162
0.25339687 -0.300943 0.9113975 -0.037836544 -0.8188361 -0.2178881 -0.63934773 -0.2545992
-0.27521586 0.116289236 0.5942243 0.35943988 0.11993113 0.22400561 -1.1262474 0.12248776
-0.121448174 0.263975 0.51105237 0.26724142 0.5145486 0.37606406 0.19069436 0.31435013
0.49969628 -0.2504405 0.9687876 -0.0056545977 0.72122186 0.0030438805 1.1604649 -0.2173095
-0.18429613 -0.26704723 -1.0971984 -0.08939017 -0.7170703 -0.36155507 1.05128 0.009012418
0.23832501 0.31193465 0.5035227 0.38596752 0.89510167 0.0478187 0.73467237 -0.0019988888
-0.10664838 0.18092519 -0.55834883 0.5469542 -0.35006353 0.69649553 -0.2296947 0.06813845
0.4869734 0.28922573 0.3722903 -0.20932968 0.06302917 0.5115873 0.7601006 0.44242585
-0.91074705 0.18481682 -1.0104696 0.06200498 -0.04255631 0.3638813 0.925644 0.47940627
-0.3903998 -0.5508006 0.13156386 0.119105846 -0.82017434 0.20775102 -0.79323685 0.5385824
-0.67544514 -0.032332536 -0.9080298 0.053476132 -0.76519334 0.17426734 -1.0387809 0.5477715
1.0930885 0.031843483 0.799665 0.014632673 0.44688532 0.5145944 -0.00083577004 0.066565245
-0.6751143 -0.37620738 -0.41243267 -0.42324704 -0.21489917 0.31354946 0.08762987 0.1461587
-0.18917108 -0.2807814 -0.14507714 -0.30222532 -0.6907643 0.21713792 -1.0617374 0.35362327
0.6493166 -0.18683757 0.760267 0.15541156 -0.95130783 -0.037976973 -0.010099857 0.08549278
0.26691657 0.037131798 0.8424217 -0.25658664 0.7696602 -0.15521689 0.37766483 0.013179158
-0.6935179 0.05342333 -1.231164 -0.19606896 0.15017056 -0.057404716 0.6124168 -0.511533

critic.0.bias f4 [64]
00000000: 7d7b 17be b209 993e 4bbb fdbe 20c0 013f
00000010: a062 a6bd d64d 4fbe 07de 2b3e 4caf 00bf
00000020: 4d8c 00bf 45b2 26be a5e9 9c3e f5de 933c
00000030: dc77 f43e d78f 8a3e 189b c9be 5f7d e73e
00000040: 7490 5bbd 7c1b c93e d05e a1be 399d d9be
00000050: 254c 5c3e 9664 ecbd 29ab adbe e4c8 1cbf
00000060: 7976 283f df73 83be 2fcf 05bf ffde 0fbe
00000070: 6e19 733e 03a6 dcbe 7310 e23e 99d1 b53e
00000080: 6e9d c5be d5db e0be 49d3 38bf 6b1d 483e
00000090: a50d c23d ee32 483d c0a3 4a3e d232 0e3f
000000a0: 37ca 63be 04f7 183f 6806 d83d aeeb a7be
000000b0: b36f 03bf 3e29 953e 3a79 d6bd 1934 e7be
000000c0: c84d 1f3f d15e 7c3d 5e3a 5b3e 1a65 d13e
000000d0: e370 1cbe 6bfc 23bf 3c55 e2be 28f8 16bf
000000e0: 41e2 0f3f 57f4 2b3d 5b3b 46bc b76b 9d3e
000000f0: a1f0 513e 8641 533e 1f8d 3a3e b38b f03e
-0.14793201 0.2989021 -0.49556956 0.50683784 -0.0812428 -0.20244536 0.16783915 -0.5026748
-0.5021408 -0.16278942 0.30647007 0.01805065 0.47747695 0.27062866 -0.3937614 0.45212838
-0.053604558 0.3927878 -0.3151765 -0.42502764 0.21513422 -0.11542623 -0.33919647 -0.61244035
0.65805775 -0.2567434 -0.5226926 -0.1404991 0.2374017 -0.43095407 0.44153175 0.35511473
-0.38596672 -0.4391772 -0.72197396 0.19542472 0.09475259 0.048876695 0.19789028 0.55546296
-0.22245108 0.59751916 0.10548097 -0.32796997 -0.51342314 0.29133028 -0.10472341 -0.45156935
0.6222806 0.06161386 0.21408984 0.40897447 -0.15277438 -0.64057034 -0.44205654 -0.58972406
0.5620461 0.041981068 -0.012099112 0.30746242 0.20501949 0.20630464 0.18217896 0.46981582

critic.2.weight f4 [64, 64]
00000000: 38b3 20be c6ae 803d 202c dfbb c38c 22be
00000010: 9756 f53c fd08 ae3d ff0a 87bb 5acd 0fbe
00000020: 00b5 5abd 61d6 06bc 774d e7bd 9648 03be
00000030: d31b fd3b b579 fc3d 23e1 3e3e 5628 a4bc
00000040: 3dcb acbd c26c e93d 88cd c73d a768 8abd
00000050: 8ac7 e3bd a332 a03c d43c 4dbc f565 97bc
00000060: 0037 4a3d c1e6 063e bd77 1e3d 3af7 813e
00000070: 2be5 bf3d d9a9 783e 5073 873c ec11 5ebd
00000080: 94ae 9d3b 3915 1d3e de20 073d 4ec2 1bbb
00000090: 2bc7 cdbb 8ec5 e2bd 4d61 5abe f003 f6bd
000000a0: e112 2c3e c9d1 ba3d 24c7 1b3d 1d5b ed3d
000000b0: 04cb b23d 5bcc d53d 8e4a 243e cd39 043e
000000c0: 53e2 5cbd e4ad 823e 0ab2 07be 42e7 d33c
000000d0: 41ea bdbd 6abd 4d3e fa67 07be ed1f 1d3d
000000e0: 9385 93bd dd8e 563e f6ff ad3d 5d38 233d
000000f0: d21e 4fbd bd3d 1b3c a189 d63d e4fb 11be
00000100: 9787 48be c21b 11bd c2ba 003d f59a 87bd
00000110: 98fa 3d3e a96e 16bc 5b52 6f3e 1cae 42be
00000120: 15a4 62bd dcf7 cd3d f71f 1ebd a155 88bb
00000130: 0a46 36be 24f5 c73d d967 073e b882 8d3d
00000140: 410b 19be 6267 fc3d ff2e 44be eeac bcbd
00000150: 218e 0b3e f7f5 643e 8f4c a03d a7ef 813d
00000160: 8645 84bd b5e4 b6bd 229d ee3d eeb6 453b
00000170: b105 39be ab74 1d3e a4d5 71bc 1562 3abe
00000180: 72ba 01bd 49f2 a3bd a298 8ebd 7cad 093d
00000190: 1b4b 343e 314f 713c f229 0ebd 1610 54bd
000001a0: e7df 633c 32b1 64bc e6ed a53c 6dfe ce3d
000001b0: bdbb fe3d ac58 ed3b 080a f0bd ee12 f9bc
000001c0: 1402 d43d c28e 38bd 30df 70be 4781 003d
000001d0: 05c8 273d bdef 143d af80 3fbe c8fb 7d3c
000001e0: c332 a4bd 328b 47be c836 b93d e3c6 0dbe
000001f0: b68d cb3c 3fe3 0e3e a8d1 093c 89b6 623d
00000200: 5eef e13d 6c3c eb3d 986b e9bd dee0 3c3e
00000210: 637b fcbc 1274 af3d 9b20 e1bd e382 1c3d
00000220: f265 1abc dcea e73c de02 b33d e23e 82bd
00000230: 444a 133e ed1f e63d d377 62bb 0c9e a33d
00000240: 1fdb b4bd c8a0 22bd 613e 0fbd ec3e 093e
00000250: 570e 143e ec2b 4dbe c5e4 3abe de44 6cbe
00000260: cd83 1a3e 525d 0dbd 15fc a5bd 1699 c1bd
00000270: 8aa8 1f3c b71f 7abe 576b 133e 00ef 193e
00000280: 72f0 743c 4f45 31be 9ed6 f5bb 178d c23d
00000290: f124 aa3d eb6e 5fbd 00cf d23b f2f6 c83c
000002a0: cb03 9bbd 936d 253e 1231 9b3c 235f 86be
000002b0: dc45 d03c d7d2 93bd dee7 f0bd 1600 afbd
000002c0: 94ca f33c 01cd ebbd c6e1 b93d 90bc 6abb
000002d0: e717 adbd d6d9 283c 9fe3 24bd 66c5 74be
000002e0: 7926 353e 1b9f a53c b5aa 103e 5890 f03d
000002f0: 5ddf 94bc 8636 3e3e 9f7a 45bd 3d1c 0f3e
00000300: db0f f2bd 2574 293e d8bf 1abe e027 643e
00000310: 75a1 00bd 0327 88bc fdb8 b63c c4c5 f9bd
00000320: fb92 6abd cbc6 873c cc0f b33d 3aaf d03d
00000330: d65e 603e 0f8e 1a3d 32db 33be b04d ed3d
00000340: 6f97 8abd dc34 a6bb d032 c93c 03ad a53d
00000350: 303a 893d 1580 a1bd 7b02 6dbc 3a2d 0cbe
00000360: 239c 363e e5b8 03be 748d 88bd 0d09 83bd
00000370: 2541 8bbd 0e40 63bd 2831 0f3e 7587 473e
00000380: 8d2c e0bd eee8 cdbd 45ab 80bd 2f20 193d
00000390: 5e22 a63d d985 9d3d e8b4 f93d 10a1 db3d
000003a0: 13b4 4bbe 6f8d 3e3c ae91 8bbd ee6c ecbd
000003b0: bc4b 06be 2302 a13d be7f c3bd f29c 27be
000003c0: d424 eaba 13c5 c83d f06c c23d bd67 ce3d
000003d0: d406 a83c c104 18be 8aca 0abe fcb8 6ebe
000003e0: b9dc bf3d d959 e1bd 5f59 583d 53af da3d
000003f0: 8305 ad3d ad27 123c 5fe1 d43d 2806 a73d
-0.15693367 0.062833354 -0.00681068 -0.15874009 0.029948516 0.08497808 -0.004121184 -0.14043179
-0.05339527 -0.008229823 -0.11294072 -0.12820658 0.007724264 0.12327901 0.1864057 -0.020038765
-0.08437202 0.11397697 0.09755999 -0.06758242 -0.111220434 0.019555395 -0.01252671 -0.018481234
0.04936886 0.13173963 0.03868841 0.2538393 0.09369882 0.24283542 0.016534477 -0.05421631
0.004812071 0.15340127 0.03299033 -0.0023766938 -0.006279846 -0.11072837 -0.2132618 -0.1201247
0.16804077 0.091220446 0.038031712 0.11589644 0.087301284 0.10439368 0.16044065 0.12912674
-0.053926777 0.25523293 -0.1325151 0.025867108 -0.09273196 0.20091787 -0.13223258 0.038360525
-0.07203212 0.20952936 0.08496086 0.039848674 -0.050566502 0.009475169 0.104754694 -0.14256245
-0.19582973 -0.035426863 0.031428106 -0.066213526 0.18552625 -0.009181657 0.2337126 -0.1901173
-0.055332262 0.10057041 -0.038604703 -0.0041605984 -0.17800155 0.09763554 0.13223208 0.06909698
-0.149457 0.12324406 -0.19158553 -0.09212671 0.13628437 0.22359453 0.078271024 0.06344538
-0.06458573 -0.08930341 0.116510645 0.003016885 -0.18068577 0.15376537 -0.014760409 -0.18201478
-0.03167195 -0.080051966 -0.06962706 0.033612713 0.17606775 0.014728353 -0.03470797 -0.051773153
0.013908363 -0.013958262 0.02025504 0.101071216 0.12438152 0.0072432365 -0.11720663 -0.030404534
0.10351959 -0.04505802 -0.2352264 0.03137329 0.040962238 0.036361445 -0.18701433 0.015501924
-0.080174945 -0.19486693 0.09043652 -0.138454 0.024847846 0.13953875 0.008411802 0.05534986
0.11031984 0.11486134 -0.11397475 0.18445155 -0.030820554 0.085670605 -0.10992547 0.03821076
-0.00942372 0.028310232 0.08740781 -0.0635965 0.14383799 0.11236558 -0.0034556284 0.079891294
-0.088308565 -0.039704114 -0.0349716 0.13402909 0.14458595 -0.20036286 -0.18251331 -0.23073146
0.1508934 -0.034512825 -0.081047215 -0.09453027 0.009744773 -0.24426161 0.14396416 0.15032578
0.014949905 -0.17311595 -0.007502391 0.09499567 0.08307827 -0.05454914 0.0064333677 0.024531815
-0.07569083 0.1615508 0.018944297 -0.2624446 0.025423937 -0.07217949 -0.11762975 -0.08544938
0.029759683 -0.11513711 0.09076266 -0.0035817958 -0.08451825 0.010305842 -0.04025614 -0.23903427
0.17690457 0.020217469 0.1412762 0.117462814 -0.018172914 0.18575487 -0.048212644 0.13975616
-0.118194304 0.16548212 -0.15112245 0.22280836 -0.031403977 -0.016620165 0.022305006 -0.12195924
-0.057269078 0.016574284 0.087432474 0.10189672 0.21911177 0.037733134 -0.17564085 0.11587083
-0.06767165 -0.0050722193 0.024560362 0.0808964 0.067005515 -0.07885758 -0.014465923 -0.13689128
0.17832999 -0.128635 -0.06667605 -0.06398211 -0.06799535 -0.05548101 0.13983595 0.19485267
-0.109459974 -0.100541934 -0.06282667 0.03738421 0.08112024 0.07691545 0.12192708 0.107240796
-0.19892912 0.0116304 -0.068148956 -0.11544214 -0.13114828 0.07861736 -0.09545849 -0.16368464
-0.0017863759 0.09803214 0.094934344 0.1007838 0.020511068 -0.14845563 -0.13553825 -0.23312753
0.093682714 -0.11003465 0.052819606 0.10677972 0.08448317 0.008920592 0.103945486 0.08155471

critic.2.bias f4 [64]
00000000: 63a8 72be 8bfc 2cbd a1bf 7f3e 4d67 873d
00000010: a9f5 843e accc 87bd d90d 0b3e 767d 43be
00000020: f7e4 3a3e 4e41 ddbd f1c1 803e 0954 823e
00000030: c4d9 9ebe 109c 68bd 5fac bd3d 0198 673e
00000040: 4447 e83d b59e 40be 95e0 4ebe 8d37 afbd
00000050: 4291 49be b2e5 8abd 9f7c 443e 780f 6a3d
00000060: fcde 323d 6e83 3d3d 9c16 4ebd 7420 0abe
00000070: 1081 29be 9000 81be d74b a8bd d618 3dbd
00000080: c4b1 ebbc 60fe a6bd d9c1 48be 10a0 21be
00000090: ee50 88bd 4229 87be 1855 23bd 8370 513e
000000a0: e99f 8bbb f46a 60be dcdc 80be 1515 b33d
000000b0: e8ed 803d 899d 5a3e 32cc b2ba 964c f53d
000000c0: 1374 1fbe db9f 85bd 8e23 473e 7ffe 0c3d
000000d0: 311f 4d3e 3887 87bd 9590 69ba 08ca 173e
000000e0: 90f6 f53d 7f71 af3c 15b4 90bd 7b9d 2a3e
000000f0: 8815 86bd 1fd1 59be 7de2 64bc 70b2 7b3e
-0.23697047 -0.04223303 0.24975444 0.066115 0.25968674 -0.06630835 0.13579501 -0.19090828
0.18251406 -0.108034715 0.25147966 0.2545474 -0.31025517 -0.056789458 0.09261393 0.22616579
0.11341718 -0.18810542 -0.20202859 -0.08555517 -0.19684318 -0.06782092 0.19188164 0.05714366
0.043669686 0.04626792 -0.05031453 -0.13488942 -0.1655314 -0.25195742 -0.0821759 -0.046166264
-0.028771289 -0.08153987 -0.19605197 -0.15783715 -0.06656061 -0.26398665 -0.039876074 0.20453076
-0.004261006 -0.219158 -0.25168502 0.087442555 0.06295377 0.21349157 -0.0013641177 0.11977498
-0.15571623 -0.06524631 0.19447157 0.034422394 0.2003143 -0.06617588 -0.0008909789 0.14823163
0.12009919 0.021416424 -0.07065598 0.16661637 -0.065470755 -0.2127118 -0.013970015 0.24579787

critic.4.weight f4 [1, 64]
00000000: 56c9 933d ea31 863d 3dbc 41be 95fb 1abe
00000010: 68c0 61be ea5c f13d b72b 37be e8d7 523e
00000020: 2bf5 e4bd b6af 37be 7c0d f8bd bbe2 25be
00000030: 38af aabe 04f2 863d f0c7 0ebe 5a54 303e
00000040: 8de8 44bc 71d9 323e 7479 2d3e 03b0 0ebe
00000050: 9c86 a83d d886 f63d bccf 08be df92 1c3d
00000060: 5f2d 613d 1d77 abbc d009 cf3b 8246 113e
00000070: 6453 51be 69f3 123e b7b3 9cbc 4bf3 96bd
00000080: 32b0 dc3d be14 d03d 9849 1a3e 2113 81be
00000090: 6268 1abe 3d06 033e 729a 503e e665 15be
000000a0: 7030 163c bc66 423e 651c 353e 340f 933e
000000b0: ab5a 6f3e ad21 0dbe 58c4 a5bd 46d2 853e
000000c0: e685 183e 79f5 84be a98e 27be 9031 a43e
000000d0: 7713 393e 92bd 84be cf3b e2bd c701 423e
000000e0: 50e0 dfbd 3a9c 6ebe 3147 143e 4572 583e
000000f0: 6634 9fbd 4633 4b3e 9b46 9c3e ee0c 84bd
0.07216136 0.06552489 -0.18919463 -0.15135033 -0.22046053 0.117853 -0.1788777 0.20590174
-0.111795746 -0.17938122 -0.12111947 -0.16199772 -0.33336806 0.065891296 -0.13943458 0.17219678
-0.012018335 0.1746576 0.16940862 -0.1393433 0.082288 0.12037438 -0.13360494 0.038226005
0.05497491 -0.020930821 0.0063183084 0.14187053 -0.20441967 0.14350666 -0.019128663 -0.07370623
0.10775794 0.10160206 0.15067136 -0.25209907 -0.15078881 0.12795348 0.20371416 -0.14589652
0.009166822 0.18984503 0.17686613 0.28722537 0.23374431 -0.13782378 -0.0809409 0.26136988
0.14894828 -0.2596853 -0.16363014 0.32069063 0.18073831 -0.2592588 -0.11046564 0.1894599
-0.10931456 -0.23301783 0.14480282 0.2113734 -0.07773666 0.19843778 0.30522618 -0.06447779
